model/ffn_covtype_attn.pth (torch, 40328 bytes, 13 tensors)

input_proj.weight f4 [320, 10]
0	0xbe5bb3ba	-0.21455279
1	0x3d052e2d	0.03251474
2	0x3cf8316e	0.030297007
3	0x3d334ac3	0.04377247
4	0xbe88896d	-0.26667348
5	0xbe99c73c	-0.30034816
6	0x3e14fe72	0.14550188
7	0x3e8ada28	0.27119565
8	0xbe8fac59	-0.28061178
9	0x3defe14c	0.11712894
10	0xbe6e5e6c	-0.23278207
11	0x3ca2677e	0.01982474
12	0x3e96a207	0.29420492
13	0x3e75a76a	0.23989645
14	0xbe6cc173	-0.2312067
15	0x3e484de2	0.1956096
16	0x3e2922a3	0.16517119
17	0xb9fe4e71	-0.000485051
18	0x3e9cd85f	0.30633828
19	0xbe009cb7	-0.12559782
20	0xbd96b6fd	-0.07359121
21	0xbe23a96c	-0.15982598
22	0x3d3a6294	0.045504168
23	0x3dab7c29	0.08373291
24	0x3cce6a22	0.025197092
25	0xbe36310c	-0.17792147
26	0xbe11c58b	-0.14235513
27	0x3ddc4b63	0.107565664
28	0xbe8df73b	-0.27727684
29	0xbd49b7d6	-0.049247585
30	0xbbe589c2	-0.0070049474
31	0xbe0332f5	-0.12812407
32	0x3debaf96	0.115081
33	0x3ca6f845	0.020382056
34	0x3e635733	0.22201233
35	0xbce611d1	-0.028084667
36	0xbe4c5f9e	-0.1995835
37	0x3e64cb2c	0.22343129
38	0x3d34e1fc	0.044160828
39	0xbdb97b38	-0.09056705
40	0xbe556dc9	-0.20842661
41	0x3d97cc61	0.07412029
42	0xbe9a6bb6	-0.30160302
43	0x3daa9291	0.083287366
44	0x3e201c17	0.15635715
45	0xbe8e06bd	-0.27739516
46	0xbe53fe84	-0.20702559
47	0xbe68ccf2	-0.2273443
48	0x3e8815d3	0.2657915
49	0x3e89a451	0.26883176
50	0x3ca22b7d	0.019796127
51	0x3e980031	0.29687646
52	0xbdd881bc	-0.1057162
53	0xbe9d2f3a	-0.30700094
54	0x3de23725	0.11045674
55	0x3de56fc0	0.11202955
56	0x3e9ebb7b	0.3100241
57	0xb8bff344	-9.1529015e-05
58	0x3e782c1b	0.24235575
59	0x3e467cfd	0.19383617
60	0x3e6a5e6b	0.2288758
61	0xbea0aac8	-0.31380296
62	0x3e85532f	0.26040027
63	0xbe8a04fc	-0.26956928
64	0x3e912722	0.28350168
65	0xbc56b4f8	-0.01310467
66	0xbe8f7c77	-0.28024647
67	0x3db41a3a	0.08794065
68	0xbd83d2eb	-0.06436714
69	0xbe916cdd	-0.2840337
70	0xbdeacad0	-0.11464465
71	0x3d058c88	0.032604724
72	0x3e7c3436	0.24629292
73	0xbdc71a20	-0.0972178
74	0x3e405649	0.18782915
75	0x3d223462	0.039600737
76	0x3c2ea499	0.01065936
77	0x3d77d7dc	0.060508594
78	0xbe5482d9	-0.2075304
79	0xbe869402	-0.26284796
80	0xbdcb7e88	-0.09936243
81	0xbe96e00d	-0.29467812
82	0xbe170329	-0.14747299
83	0x3c6e5c1a	0.014548326
84	0xbe5544df	-0.20827053
85	0xbe06516e	-0.13117
86	0xbd68be04	-0.056821838
87	0xbd153828	-0.036430508
88	0xbe32c078	-0.17456234
89	0x3c78f4b4	0.0151950605
90	0xbd35cdf8	-0.04438588
91	0x3db9387a	0.09043975
92	0x3c6a0416	0.014283201
93	0xbe21b45c	-0.15791458
94	0xbddef85b	-0.10887214
95	0xbb6edcf6	-0.003644762
96	0xbe4a0ea4	-0.19732147
97	0x3ccaccda	0.024755884
98	0xbcb6e829	-0.0223275
99	0x3dfb44ae	0.12268959
100	0x3d9945db	0.07484027
101	0x3e7256e8	0.23665965
102	0xbc2acbdd	-0.010424581
103	0xbe6f452e	-0.23366234
104	0x3e10bfcc	0.14135665
105	0xbe5ad913	-0.2137187
106	0xbd3209ac	-0.043466255
107	0xbdd1b4af	-0.10239541
108	0xbdf5bdc7	-0.11999088
109	0xbdef9d45	-0.11699919
110	0x3e94c7f9	0.29058817
111	0x3e395f13	0.18102674
112	0x3db37bd6	0.08763854
113	0x3e980671	0.29692414
114	0xbe92b9a3	-0.28657255
115	0x3d5103ad	0.051028896
116	0x3e4f4cd7	0.20244156
117	0x3e571bc9	0.21006693
118	0xbe80db07	-0.25167105
119	0x3de67c81	0.11254216
120	0xbe387960	-0.18015051
121	0xbc4a71c7	-0.012356228
122	0xbd87245d	-0.065987326
123	0xbe87301d	-0.26403895
124	0xbe9a726c	-0.30165422
125	0xbe5509e8	-0.2080456
126	0x3e12f04f	0.14349483
127	0x3e142020	0.1446538
128	0xbe8cd27e	-0.27504343
129	0xbdf336d1	-0.1187569
130	0x3ba9427a	0.0051653953
131	0xbe8bfbbe	-0.27340502
132	0x3e3674cf	0.17817996
133	0x3e92a558	0.28641772
134	0x3d651563	0.0559286
135	0xbe7099db	-0.23496191
136	0x3d970500	0.073740005
137	0x3deb19a2	0.114794984
138	0x3e8034ca	0.25040275
139	0xbe2c4b1d	-0.16825528
140	0xbe910e36	-0.28331155
141	0x3e0e44f1	0.13893487
142	0x3ca14703	0.019687181
143	0xbdd30433	-0.10303535
144	0xbe07afc8	-0.13250649
145	0xbe26f71d	-0.16305204
146	0x3e831086	0.25598544
147	0xbd5f7c0c	-0.05456166
148	0x3e698a0d	0.22806568
149	0x3e908715	0.2822806
150	0x3d241460	0.040058494
151	0x3d89f521	0.06736208
152	0xbcb06d8c	-0.021536611
153	0x3e5e6714	0.21719009
154	0xbe91e4d6	-0.284949
155	0x3e00c6d0	0.12575841
156	0xbd530961	-0.051522616
157	0x3e13dc37	0.14439474
158	0xbab89cdf	-0.0014084837
159	0xbdefcc0d	-0.117088415
160	0xbd0bd302	-0.03413678
161	0x3e2edbe6	0.17076072
162	0xbe60e697	-0.21962963
163	0xbe4caf42	-0.1998873
164	0xbd91115b	-0.070833884
165	0xbdeae9b5	-0.11470357
166	0x3dfe6a8c	0.12422666
167	0x3e59eb52	0.21281174
168	0xbd0ab8b2	-0.033867545
169	0x3e9918b7	0.29901668
170	0xbe074c1c	-0.13212627
171	0xbe35b68c	-0.17745417
172	0xbe10f897	-0.1415733
173	0xbe5f19e3	-0.21787219
174	0xbe62f975	-0.22165473
175	0xbe90435a	-0.28176385
176	0xbe8f7f0a	-0.2802661
177	0x3da9081d	0.082535006
178	0x3e457b32	0.19285277
179	0x3e9801e9	0.29688957
180	0x3e89e9d0	0.26936197
181	0xbc9532dc	-0.018212728
182	0x3d7b57b1	0.061362926
183	0xbe41bf0a	-0.18920532
184	0x3dfa530b	0.122228704
185	0xbe9b3ea0	-0.30321217
186	0x3e18bc5e	0.14915606
187	0x3d6d928b	0.058001082
188	0x3dc70555	0.09717814
189	0x3ded215b	0.11578628
190	0xbe14aa81	-0.14518167
191	0x3e8aef50	0.27135706
192	0x3e1a8ae6	0.15092048
193	0x3e54b6bd	0.20772834
194	0x3d2b13c4	0.041766897
195	0x3e4b5a55	0.19858678
196	0x3e59ede9	0.21282162
197	0x3e12c3e9	0.14332546
198	0x3e76ac80	0.24089241
199	0xbd6aeee2	-0.057356723
200	0x3e54ebea	0.20793119
201	0x3d9536e4	0.0728586
202	0x3e42d6ec	0.19027299
203	0x3e9db2e2	0.3080054
204	0x3d92a602	0.0716057
205	0xbdf06169	-0.117373295
206	0xbd00dfce	-0.031463437
207	0x3db653da	0.08902712
208	0x3d5a64f3	0.05331893
209	0xbdb0ea15	-0.086383976
210	0x3e7db77e	0.24777028
211	0x3e428d40	0.18999195
212	0xbe4923e9	-0.19642605
213	0xbcd314af	-0.025766699
214	0xbcf8aceb	-0.030355891
215	0xbe4af23c	-0.19818968
216	0x3d3cebe0	0.046123385
217	0xbdc6d1b5	-0.09707967
218	0xbe272ca3	-0.16325621
219	0xbdd03eb4	-0.1016821
220	0xbde6e9c3	-0.11275055
221	0x3e9ae365	0.30251613
222	0x3df86a18	0.12129611
223	0x3e9f561f	0.31120393
224	0x3db19418	0.08670825
225	0x3d92a50a	0.07160385
226	0x3e051e83	0.1299992
227	0x3d5e4f6e	0.05427497
228	0xbe7e1f5d	-0.24816652
229	0xbe3f7d8f	-0.1870024
230	0xbd9ce870	-0.076615214
231	0x3b9bc6da	0.0047539296
232	0x3df3f928	0.11912757
233	0x3df95edb	0.12176295
234	0x3e8071bc	0.25086772
235	0x3d83d73a	0.064375356
236	0xbddd0883	-0.10792639
237	0xbe7384e2	-0.2378116
238	0xbe6d2acd	-0.23160858
239	0xbe416d9d	-0.1888947
240	0x3dc35430	0.09537542
241	0x3e2ef30d	0.17084904
242	0x3e8da7e8	0.27667165
243	0xbdccdab8	-0.10002655
244	0xbccc5967	-0.024944974
245	0xbdc052e2	-0.09390809
246	0xba97740e	-0.0011554973
247	0x3dcfe43e	0.101509556
248	0xbbe3abf0	-0.006947987
249	0x3c6fdb5e	0.014639704
250	0x3d24180d	0.040062
251	0x3df130e0	0.117769
252	0xbdc47e40	-0.09594393
253	0xbe411769	-0.18856587
254	0x3d98cafc	0.07460591
255	0xbd195df8	-0.03744313

input_proj.bias f4 [320]
0	0xbe7a8289	-0.24463858
1	0xbe3e594c	-0.18588752
2	0xbe83fd0e	-0.25779003
3	0xbe22ac7d	-0.15886112
4	0xbc117307	-0.008877522
5	0xbe4573df	-0.19282483
6	0x3b5b0e91	0.003342543
7	0x3ddadc63	0.10686567
8	0xbd5c6005	-0.05380251
9	0x3e0bb6d3	0.1364396
10	0x3d949c74	0.072564036
11	0x3e9c67ad	0.30547848
12	0xbc8441a3	-0.01614458
13	0x3e8c55f7	0.27409336
14	0x3e725ff5	0.23669417
15	0x3e1acce4	0.15117222
16	0x3e374251	0.17896391
17	0xbe58dc6a	-0.21177831
18	0xbe58e00d	-0.21179219
19	0x3e0a48b3	0.13504295
20	0x3deb282e	0.11482273
21	0x3e921cb3	0.2853752
22	0xbd28a51d	-0.04117309
23	0xbd6e1ba1	-0.058131818
24	0x3e5dfd18	0.21678579
25	0x3c275344	0.010212723
26	0x3e9800e1	0.2968817
27	0xbe252ba7	-0.16129933
28	0xbdd47d7b	-0.10375496
29	0x3c5fdd2b	0.01366357
30	0x3e2cb4c3	0.1686583
31	0xbe8df0a8	-0.2772267
32	0xbdb54885	-0.08851723
33	0x3e6b2b34	0.229657
34	0x3d86d9f4	0.0658454
35	0x3e64ee90	0.2235663
36	0xbddb605a	-0.10711737
37	0xbe4c20e8	-0.19934428
38	0xbe5d129a	-0.21589127
39	0xbe360f56	-0.17779288
40	0xbe7359e6	-0.23764762
41	0x3e207951	0.15671279
42	0x3dae1322	0.08499743
43	0xbe4f2fa8	-0.20233023
44	0x3e9467a8	0.28985333
45	0x3db86185	0.090029754
46	0x3df10597	0.11768644
47	0xbe0870ff	-0.13324355
48	0x3e6030e1	0.21893646
49	0xbe646ac3	-0.22306351
50	0x3e6c0a04	0.23050696
51	0xbe2ff781	-0.17184259
52	0x3e09896f	0.13431333
53	0xbdea4a72	-0.114399806
54	0x3e525fc3	0.20544343
55	0xbe87c9c1	-0.26521114
56	0xbd7c8cc4	-0.061657682
57	0xbdaece9e	-0.08535503
58	0xbe41a237	-0.18909536
59	0xbe1f0ea0	-0.15532923
60	0xbdb5bac2	-0.08873512
61	0x3d064e24	0.032789364
62	0x3e65d8ef	0.22446035
63	0xbd54d916	-0.05196484
64	0x3e9eb3f3	0.30996665
65	0xbe1a184f	-0.15048335
66	0xbe26b4b7	-0.16279875
67	0xbc87211b	-0.016495278
68	0xbd6a7cb0	-0.057247818
69	0x3dcdb5ba	0.10044427
70	0x3e9599ef	0.29219005
71	0x3dddbe5d	0.108273245
72	0xbe877aed	-0.26460972
73	0xbddd451c	-0.10804197
74	0xbd80a974	-0.062823206
75	0xbe936ef4	-0.28795588
76	0x3dc83db0	0.09777391
77	0x3e8d54ba	0.27603704
78	0x3e20d334	0.15705568
79	0xbbcd2f54	-0.0062617455
80	0xbcc5389c	-0.024074845
81	0xbe17a43d	-0.14808746
82	0xbd0fe55f	-0.035130855
83	0x3e8dfff5	0.27734342
84	0xbe267b4f	-0.16257976
85	0x3d4f3976	0.05059191
86	0xbe6d9777	-0.2320231
87	0xbdb11a6d	-0.086476184
88	0x3c960276	0.01831172
89	0xbe7483a0	-0.23878336
90	0x3daff62c	0.085918754
91	0xbe8b08e7	-0.2715523
92	0xbe0447d8	-0.12918031
93	0x3e615802	0.22006229
94	0x3e97e109	0.29663876
95	0xbcca89f8	-0.024723992
96	0xbe67721b	-0.22602122
97	0xbe84f055	-0.2596461
98	0xbd9f2854	-0.07771364
99	0xbe253f1d	-0.16137357
100	0x3e80b3f5	0.25137296
101	0xbe66d6d9	-0.22542895
102	0x3e42ea9b	0.19034807
103	0x3d7644ab	0.06012408
104	0xbdc4fab5	-0.09618131
105	0x3e83fab8	0.2577722
106	0x3e343368	0.17597735
107	0xbc3535d3	-0.011060196
108	0xbe5b79e8	-0.21433222
109	0xbdbe9d8b	-0.09307393
110	0x3dd0d0a5	0.10196046
111	0x3e8c49fa	0.2740019
112	0xbdda8ca8	-0.10671359
113	0xbe0692af	-0.13141893
114	0xbe9e3164	-0.30897057
115	0x3e470845	0.19436748
116	0x3e9e06ea	0.3086465
117	0x3e5ef0f7	0.21771608
118	0xbe346f48	-0.17620575
119	0x3e67f9bf	0.22653864
120	0xbdc457a2	-0.09587027
121	0x3e294c3e	0.1653299
122	0x3e3d5746	0.18490323
123	0xbe8400d5	-0.25781885
124	0x3da044df	0.07825636
125	0x3e014676	0.12624535
126	0xbe42ab22	-0.19010594
127	0x3e95b145	0.29236808
128	0x3e7ccbd0	0.24687123
129	0x3e87514b	0.2642921
130	0xbb3af471	-0.0028527046
131	0xbe2d4135	-0.16919406
132	0xbe30f598	-0.17281187
133	0x3de4e79d	0.11176989
134	0xbd80aa25	-0.062824525
135	0x3e80b018	0.2513435
136	0x3e879966	0.2648422
137	0x3cc7e8cd	0.024403
138	0xbe848d58	-0.25889087
139	0x3e00886b	0.1255204
140	0x3e90e427	0.28299066
141	0xbda2aa7e	-0.07942675
142	0xbe297856	-0.16549811
143	0xbd977fc1	-0.07397414
144	0x3d3992d1	0.04530603
145	0xbe7042bf	-0.23462962
146	0x3e2cee28	0.16887724
147	0x3e0a6a1f	0.13517044
148	0xbdf79c78	-0.12090391
149	0xbdefe9b2	-0.11714496
150	0xbe19a605	-0.15004738
151	0x3e7d2072	0.24719408
152	0x3e400dcf	0.18755268
153	0x3db813b0	0.0898813
154	0xbc68609c	-0.01418319
155	0x3da1c9b2	0.078997985
156	0x3e9c359f	0.3050966
157	0x3dcd0d74	0.100123316
158	0xbe217f5a	-0.15771237
159	0x3dfa864b	0.122326456
160	0xbe0080fd	-0.12549205
161	0xbc37f9b3	-0.0112289665
162	0xbe509036	-0.20367512
163	0xbc1795bb	-0.009252007
164	0x3c87254b	0.016497275
165	0xbe44634b	-0.19178502
166	0x3e502ea3	0.2033029
167	0x3e958977	0.2920644
168	0xbe876d20	-0.26450443
169	0x3dbba957	0.091631584
170	0xbe5fb1b5	-0.21845134
171	0xbd80b8e9	-0.06285269
172	0x3e1b1d1e	0.15147826
173	0xbbb5e61f	-0.005551114
174	0x3dc44106	0.09582715
175	0xbdd1d541	-0.10245753
176	0x3e9a8366	0.30178374
177	0xbe18074c	-0.14846534
178	0x3d726df4	0.05918689
179	0x3d04f4be	0.032459967
180	0x3e5c93b2	0.21540716
181	0x3d04451e	0.032292478
182	0x3e433c52	0.19065979
183	0x3da6dd78	0.081477106
184	0x3e4e78c2	0.20163253
185	0x3b82f71a	0.003996742
186	0x3dd81aaf	0.105519645
187	0x3e9fb5bb	0.31193337
188	0xbdd2ff1f	-0.10302567
189	0xbe03c53b	-0.12868206
190	0x3e6b0fdf	0.22955273
191	0x3df7a7a2	0.1209252
192	0xbe98d3b2	-0.2984901
193	0x3de656e9	0.112470455
194	0xbe9ecae5	-0.3101417
195	0xbe2fcec8	-0.17168725
196	0x3dfd72a5	0.12375382
197	0x3e2a942e	0.16658089
198	0xbd923b89	-0.07140262
199	0x3e890cd8	0.26767612
200	0x3ea0e6f5	0.31426206
201	0x3e7c8125	0.2465864
202	0xbe94b4c7	-0.29044172
203	0xbdeb91af	-0.11502396
204	0x3c9d9c4a	0.019239563
205	0x3e839844	0.25702107
206	0xbd594733	-0.053046416
207	0x3d874a55	0.066059746
208	0x3e2a7047	0.16644393
209	0xbe296bc4	-0.16545016
210	0xbe441a2d	-0.1915061
211	0x3ea01df0	0.3127284
212	0xbbe73783	-0.007056178
213	0x3e65210f	0.22375892
214	0xbe9de033	-0.30835113
215	0xbdf7338a	-0.12070377
216	0x3e6337dd	0.22189279
217	0xbcfaccfd	-0.030615324
218	0x3dda23ba	0.106513456
219	0xbe87a254	-0.26491034
220	0x3e9d9709	0.30779293
221	0xbe219ee0	-0.15783262
222	0xbc82fd30	-0.01598987
223	0xbe541960	-0.20712805
224	0xbe0fab4c	-0.14030188
225	0xbe8acd5c	-0.27109802
226	0xbe8db776	-0.27679032
227	0xbd844f19	-0.06460399
228	0xbe0ed515	-0.13948472
229	0x3e6f340b	0.23359697
230	0xbac889ae	-0.0015299821
231	0x3e7bcc94	0.24589759
232	0xbd58f1a9	-0.05296484
233	0x3d89661d	0.0670893
234	0x3e9b7f59	0.30370596
235	0xbe7a91e2	-0.24469712
236	0xbe0c4782	-0.13699153
237	0x3e8a6a7b	0.27034363
238	0xbd947b31	-0.072500594
239	0xbdae6abf	-0.08516454
240	0x3ccfe68e	0.025378492
241	0xbe2dd6b7	-0.16976438
242	0x3cba4e57	0.022742433
243	0xbe06967d	-0.13143344
244	0x3dcd748b	0.100319944
245	0xbd897a18	-0.06712741
246	0xbdd9529f	-0.10611462
247	0xbdf3f7d0	-0.11912501
248	0x3da842c9	0.08215863
249	0x3e228120	0.1586957
250	0xbe9405f9	-0.28910807
251	0xbe61d6fc	-0.22054666
252	0xbe9b62f5	-0.30348936
253	0x3e17281a	0.14761391
254	0x3e72daef	0.23716329
255	0xbe9b8fe2	-0.3038321

attn_block.norm.weight f4 [32]
0	0x3f800000	1.0
1	0x3f800000	1.0
2	0x3f800000	1.0
3	0x3f800000	1.0
4	0x3f800000	1.0
5	0x3f800000	1.0
6	0x3f800000	1.0
7	0x3f800000	1.0
8	0x3f800000	1.0
9	0x3f800000	1.0
10	0x3f800000	1.0
11	0x3f800000	1.0
12	0x3f800000	1.0
13	0x3f800000	1.0
14	0x3f800000	1.0
15	0x3f800000	1.0
16	0x3f800000	1.0
17	0x3f800000	1.0
18	0x3f800000	1.0
19	0x3f800000	1.0
20	0x3f800000	1.0
21	0x3f800000	1.0
22	0x3f800000	1.0
23	0x3f800000	1.0
24	0x3f800000	1.0
25	0x3f800000	1.0
26	0x3f800000	1.0
27	0x3f800000	1.0
28	0x3f800000	1.0
29	0x3f800000	1.0
30	0x3f800000	1.0
31	0x3f800000	1.0

attn_block.norm.bias f4 [32]
0	0x00000000	0.0
1	0x00000000	0.0
2	0x00000000	0.0
3	0x00000000	0.0
4	0x00000000	0.0
5	0x00000000	0.0
6	0x00000000	0.0
7	0x00000000	0.0
8	0x00000000	0.0
9	0x00000000	0.0
10	0x00000000	0.0
11	0x00000000	0.0
12	0x00000000	0.0
13	0x00000000	0.0
14	0x00000000	0.0
15	0x00000000	0.0
16	0x00000000	0.0
17	0x00000000	0.0
18	0x00000000	0.0
19	0x00000000	0.0
20	0x00000000	0.0
21	0x00000000	0.0
22	0x00000000	0.0
23	0x00000000	0.0
24	0x00000000	0.0
25	0x00000000	0.0
26	0x00000000	0.0
27	0x00000000	0.0
28	0x00000000	0.0
29	0x00000000	0.0
30	0x00000000	0.0
31	0x00000000	0.0

attn_block.q_proj.weight f4 [32, 32]
0	0x3e28d94f	0.16489147
1	0xbdc2a6ad	-0.09504447
2	0x3e2d1aa7	0.16904698
3	0xbde71fd0	-0.11285365
4	0x3d0353f7	0.032062497
5	0x3d561658	0.052267402
6	0xbd2b0a92	-0.041758128
7	0x3e0d2955	0.13785298
8	0xbe242020	-0.1602788
9	0xbd9670d3	-0.07345738
10	0xbce3f558	-0.02782695
11	0x3e0aa3c5	0.13539036
12	0x3da7ad94	0.08187404
13	0x3de8e1fc	0.11371228
14	0x3d9bd601	0.076091774
15	0x3e22d062	0.15899804
16	0xbd345361	-0.04402483
17	0xbd5f87fc	-0.054573044
18	0xbcc6dbe3	-0.024274772
19	0x3d8e6be5	0.06954173
20	0xbd54560f	-0.051839884
21	0x3d84f84f	0.064926736
22	0x3d468511	0.048466746
23	0x3d2a40d3	0.041565727
24	0x3e137be1	0.14402725
25	0x3ce6a77b	0.028156033
26	0x3df03e28	0.11730605
27	0xbd49dfbd	-0.04928564
28	0xbe22ab63	-0.15885691
29	0x3ddd4376	0.10803883
30	0x3d96262e	0.07331501
31	0x3e1811da	0.1485056
32	0x3d8a551a	0.06754513
33	0x3b67882a	0.0035328963
34	0xbe02a913	-0.12759809
35	0xbe2b9f42	-0.16759971
36	0x3d1150f4	0.035477594
37	0x3e13ad22	0.14421514
38	0xbc612829	-0.013742485
39	0xbd6c384d	-0.05767088
40	0x3db51eef	0.08843791
41	0xbdaf4773	-0.0855855
42	0x3d7f801b	0.06237803
43	0xbe12e4c1	-0.14345075
44	0xbe240d6e	-0.16020748
45	0xbdd33677	-0.10313123
46	0xbcf7f3d3	-0.030267632
47	0x3d74287b	0.059608918
48	0x3db72e76	0.089444086
49	0xbde526f8	-0.11189073
50	0xbd14b5b9	-0.036306117
51	0x3d6e69f1	0.058206502
52	0xbd1fae92	-0.038984843
53	0x3b2e18f1	0.002656516
54	0x3dea62ce	0.11444627
55	0xbd50e266	-0.05099716
56	0x3dbaa745	0.091139354
57	0x3e1315e6	0.14363822
58	0x3d7161a4	0.058931008
59	0xbd00a914	-0.031411245
60	0xbde53c70	-0.11193168
61	0xbdef49da	-0.11684008
62	0xbd0cb03d	-0.03434776
63	0x3d62493c	0.055245623
64	0x3dc6015e	0.096682295
65	0xbc0bb806	-0.008527761
66	0x3e11dfa5	0.1424547
67	0xbd8f64be	-0.07001637
68	0x3d1063e5	0.035251517
69	0xbdb95a6c	-0.0905045
70	0x3d42911c	0.04750167
71	0x3e1a7e95	0.1508735
72	0x3d7db756	0.06194242
73	0x3c420f8e	0.011844529
74	0xbd853d9d	-0.065058924
75	0xbe148498	-0.14503706
76	0xbdf7bf20	-0.12097001
77	0xbe1b46e0	-0.15163755
78	0x3e00a89a	0.12564316
79	0xbd9708a4	-0.07374695
80	0xbcd8ae68	-0.02645035
81	0xbe22366d	-0.15841074
82	0xbd49e6c9	-0.04929236
83	0x3e19f7fe	0.15036008
84	0x3d051f2a	0.032500423
85	0xbd014b34	-0.03156586
86	0x3dbcb29e	0.09213756
87	0x3e0b8eb2	0.13628653
88	0x3e0cdcfe	0.13756177
89	0xbe05ef82	-0.13079646
90	0x3c4ff22e	0.0126920175
91	0xbe14a5cd	-0.14516373
92	0xbdf99dba	-0.12188287
93	0x3e0b007b	0.13574402
94	0xbe1038b9	-0.14084138
95	0xbdb18cc7	-0.08669429
96	0x3dad9f7e	0.08477686
97	0x3e302082	0.17199901
98	0xbe2fd858	-0.17172372
99	0xbde99dcc	-0.114070505
100	0xbd8df7ad	-0.06932006
101	0x3e0c3a63	0.13694148
102	0x3dd2fc57	0.10302036
103	0x3de1b41a	0.1102068
104	0x3de7faf0	0.113271594
105	0xbd3535b8	-0.044240683
106	0x3e0578de	0.13034388
107	0xbba2c655	-0.0049674907
108	0x3c880f32	0.016608808
109	0xbd40050c	-0.046879813
110	0x3d9994ac	0.0749906
111	0x3da1ac40	0.07894182
112	0xbc998148	-0.018738404
113	0x3e1f5bc2	0.15562347
114	0xbd3b86ac	-0.04578273
115	0x3d374560	0.044743896
116	0x3e24699e	0.16055915
117	0x3dcbfa77	0.09959882
118	0xbd83d552	-0.06437172
119	0xbda3ff26	-0.0800765
120	0x3d0bbe5e	0.034117095
121	0xbaaf9b05	-0.001339764
122	0x3c4bd6cd	0.012441349
123	0x3de9365d	0.11387322
124	0x3d7d19da	0.061792232
125	0xbdcb0c12	-0.099144116
126	0xbe13cbc8	-0.14433205
127	0x3e2b238d	0.1671278
128	0xbc9f6d68	-0.019461349
129	0xbd8ea14e	-0.0696436
130	0xbe04f39e	-0.12983558
131	0x3e2dd43c	0.16975492
132	0x3db6afcf	0.089202516
133	0xbde5825a	-0.11206503
134	0xbe1c5722	-0.15267614
135	0x3e1d4162	0.15356973
136	0x3d9bdf6d	0.076109745
137	0xbcd4b826	-0.025966715
138	0xbe167151	-0.14691664
139	0x3ddb6f12	0.10714544
140	0xbdf5c26a	-0.11999972
141	0x3db1e826	0.08686857
142	0xbe2bedaf	-0.16789888
143	0xbe216608	-0.15761578
144	0xbe2da807	-0.16958629
145	0x3e241a0b	0.1602556
146	0x3e247fd2	0.16064385
147	0xbe1a75f9	-0.15084065
148	0x3e0bef25	0.13665445
149	0xbddc0e80	-0.10744953
150	0xbe283b17	-0.16428791
151	0x3dae3c24	0.08507565
152	0x3dcd39de	0.10020803
153	0x3dcd36ad	0.10020194
154	0x3cfe25b0	0.03102383
155	0x3e2db9c4	0.16965395
156	0xbe1bf0b4	-0.1522854
157	0x3da70a92	0.08156313
158	0xbd6572fc	-0.05601786
159	0x3c0f0b34	0.008730698
160	0x3df9b197	0.12192076
161	0xbe01a0f9	-0.12659062
162	0x3d9ea831	0.07746924
163	0xbd10a082	-0.035309322
164	0x3dea2c8c	0.11434278
165	0xbb981cb9	-0.004642096
166	0x3db39eef	0.087705486
167	0x3e2dafc5	0.16961582
168	0xbd814414	-0.06311813
169	0xbe324fff	-0.17413329
170	0x3e2ac053	0.16674928
171	0xbdc752de	-0.097326025
172	0x3d257911	0.04039866
173	0x3de12a6a	0.10994418
174	0xbce0e3ed	-0.027452433
175	0x3e0d7909	0.13815702
176	0x3dea9ee3	0.114560865
177	0xbd11c6f9	-0.035590146
178	0x3d3dd822	0.0463487
179	0x3c5b7e27	0.013396776
180	0x3e3116d6	0.17293867
181	0x3dfaa662	0.12238766
182	0xbdf12203	-0.11774065
183	0x3c8b884b	0.017032763
184	0x3dc344d9	0.09534616
185	0x3e0a63d7	0.13514648
186	0x3d773926	0.060357235
187	0x3d99d61d	0.07511542
188	0xbd05b063	-0.03263892
189	0x3b7b4855	0.0038342674
190	0xbdfa9191	-0.12234796
191	0x3e1505c5	0.14552982
192	0x3e0e8aae	0.1392009
193	0xbdc75ae4	-0.09734133
194	0xbe1afa87	-0.15134631
195	0x3e0d281a	0.13784829
196	0xbe20707f	-0.15667914
197	0x3de82eec	0.11337075
198	0xbe3051ee	-0.17218754
199	0xbdb917e9	-0.090377636
200	0xbd994903	-0.07484629
201	0x3e2a1f76	0.16613564
202	0xbcf50cb3	-0.029913282
203	0x3e1c2518	0.15248525
204	0x3d526003	0.051361095
205	0x3e2f5e52	0.17125824
206	0x3defcba4	0.11708763
207	0x3e0550ec	0.1301915
208	0x3e1dd252	0.15412262
209	0xbd55edf3	-0.05222888
210	0xbd4714eb	-0.048603933
211	0x3d694dd1	0.056958977
212	0x3e1f77b3	0.15573005
213	0xbd853baf	-0.06505524
214	0xbe0e6475	-0.13905509
215	0xbe0d9abb	-0.13828556
216	0xbda7430d	-0.08167086
217	0x3ce7133a	0.02820741
218	0xbca794c9	-0.020456688
219	0xbd4118c0	-0.047142744
220	0xbda94099	-0.08264274
221	0x3d3c55ec	0.04598038
222	0xbe151bd5	-0.14561398
223	0x3e321747	0.17391692
224	0xbce045fa	-0.027377117
225	0x3d071aa6	0.0329844
226	0x3d6e870b	0.058234256
227	0xbd8cddb7	-0.06878226
228	0x3e0edbea	0.13951078
229	0xbaabbaf3	-0.001310198
230	0x3c6d989e	0.014501719
231	0xbe2c52c7	-0.16828452
232	0x3cb34067	0.021881295
233	0x3d787326	0.06065669
234	0x3cc9cbfc	0.0246334
235	0xbc8f84bd	-0.01751935
236	0x3e08afbf	0.13348292
237	0x3e0f1d5d	0.13976045
238	0x3df93ff2	0.121704
239	0xbcfb581c	-0.030681662
240	0x3cfa2934	0.030537225
241	0xbdfcc834	-0.12342873
242	0xbe0784ca	-0.13234249
243	0xbcfd199c	-0.030896
244	0x3ca1de01	0.01975918
245	0xbdd2defc	-0.10296437
246	0xbe171881	-0.14755441
247	0x3da4b2a2	0.08041884
248	0x3d845db2	0.064631835
249	0xbdef3334	-0.11679688
250	0x3df0e9f1	0.11763371
251	0xbe074e26	-0.13213405
252	0x3e08ef11	0.13372447
253	0x3dc054b2	0.09391154
254	0xbd74b6da	-0.059744693
255	0x3e2c573c	0.16830152

attn_block.k_proj.weight f4 [32, 32]
0	0xbe165bbe	-0.14683434
1	0xbe0f4719	-0.13991965
2	0xbd1d870d	-0.038458873
3	0x3e2dec9e	0.16984794
4	0x3cf97774	0.030452468
5	0xbd96b367	-0.07358437
6	0x3df206c0	0.11817694
7	0x3e059a3b	0.13047116
8	0x3df76e9a	0.120816424
9	0x3ad7a8c6	0.0016453497
10	0xbc9ce350	-0.01915136
11	0x3deb27b6	0.11482184
12	0x3dc29d70	0.09502685
13	0x3e09415e	0.13403842
14	0x3e025f7d	0.12731738
15	0xbd4d875a	-0.05017791
16	0x3e19520a	0.14972702
17	0x3d0daa72	0.034586377
18	0x3e343842	0.17599586
19	0x3e3414cb	0.17586057
20	0x3e17d0fe	0.14825818
21	0x3df0fede	0.11767362
22	0x3e0e21ba	0.13880053
23	0xbdaa2a16	-0.083088085
24	0xbd8cf09c	-0.0688183
25	0xbd28bf2f	-0.041197952
26	0xbdb94d43	-0.0904794
27	0x3e04ff1a	0.12987939
28	0x3c8760b8	0.016525611
29	0xbd3763b1	-0.044772808
30	0xbda23494	-0.07920185
31	0xbe2129fd	-0.15738674
32	0x3c4fd026	0.012683904
33	0x3e1f1f73	0.1553934
34	0x3dee0d06	0.11623578
35	0x3e0f793c	0.14011091
36	0x3df75bc9	0.120780535
37	0x3d98587c	0.07438752
38	0xbba6ce5b	-0.0050905175
39	0xbe05e9df	-0.13077496
40	0x3e0517c2	0.12997344
41	0xbdfec2de	-0.12439512
42	0xbdd9b4cf	-0.106301896
43	0x3d914656	0.07093494
44	0x3dc6d460	0.09708476
45	0xbdbc668a	-0.09199245
46	0x3de51ec0	0.11187506
47	0xbe296905	-0.16543968
48	0x3d2c8c63	0.04212607
49	0x3d9fd3fb	0.07804104
50	0x3d067e60	0.032835364
51	0xbdcbb8c0	-0.09947348
52	0xbdf48035	-0.11938516
53	0x3e10adba	0.14128771
54	0x3d1f84b3	0.03894491
55	0xbd9b88bd	-0.0759444
56	0x3e2e5b35	0.1702698
57	0xbd17234b	-0.036898892
58	0xbd05e571	-0.032689516
59	0x3d3a5f6f	0.04550117
60	0x3e16b530	0.14717555
61	0xbda12959	-0.078692146
62	0x3a69a081	0.00089121616
63	0xbda28920	-0.07936311
64	0xbda3fb7e	-0.08006953
65	0xbcc566cd	-0.02409687
66	0xb93ef689	-0.00018211654
67	0x3dc21ffe	0.09478758
68	0xbe0735e0	-0.13204145
69	0x3dd217c4	0.10258439
70	0x3e0d6cd4	0.13811046
71	0xbca5173e	-0.020152684
72	0xbc81b901	-0.015835287
73	0x3d328f9a	0.04359398
74	0xbe25ba0d	-0.16184254
75	0x3e05328b	0.13007562
76	0xbcfd54eb	-0.030924281
77	0x3be8f6fa	0.00710952
78	0x3daba3c5	0.08380846
79	0x3d96c027	0.07360869
80	0xbda78445	-0.08179525
81	0xbe04f62e	-0.12984535
82	0xbe2ea16b	-0.17053764
83	0xbe17280c	-0.1476137
84	0xbd1836dd	-0.037161697
85	0xbe0c878f	-0.13723586
86	0xbc923970	-0.017849654
87	0xbdbf4544	-0.09339383
88	0x3dcd24ad	0.10016761
89	0x3df7a353	0.120916985
90	0x3e1924b1	0.14955403
91	0xbded6864	-0.115921766
92	0xbdff7ebf	-0.12475347
93	0x3d7b2e2b	0.061323326
94	0xbd2559f4	-0.04036899
95	0x3e094819	0.1340641
96	0xbe26110c	-0.1621744
97	0x3e27dda7	0.16393147
98	0xbdfb1ddf	-0.12261557
99	0xbe112984	-0.14175993
100	0xbc999093	-0.018745696
101	0xbda0628d	-0.07831297
102	0xbde439ea	-0.11143859
103	0x3dceb0db	0.10092326
104	0x3e0bce2a	0.13652864
105	0x3dc99178	0.09842199
106	0x3cb0c34c	0.0215775
107	0xbcd06411	-0.02543834
108	0xbdc5888b	-0.09645184
109	0x3e2c88a7	0.16849004
110	0xbdc52fa5	-0.09628228
111	0xbe1eb6b0	-0.15499377
112	0x3e1994b2	0.14998129
113	0xbc699548	-0.014256783
114	0x3df342f3	0.11878004
115	0xbd705480	-0.058674335
116	0x3e0cfda0	0.13768625
117	0xbdff4ca7	-0.12465792
118	0x3dd9de73	0.10638132
119	0x3e0ce3bb	0.13758747
120	0xbb21f809	-0.002471449
121	0x3df01755	0.117232
122	0x3bcd8e00	0.0062730312
123	0xbe25bccc	-0.16185302
124	0x3d9e9b6b	0.077444874
125	0xbe0cb972	-0.13742617
126	0x3bb60ac1	0.005555481
127	0xbe22d4df	-0.15901516
128	0xbdac5f7f	-0.08416652
129	0xbd57bf72	-0.05267281
130	0xbd8cb1dd	-0.06869862
131	0xbe325074	-0.17413503
132	0xbdb3d1d2	-0.087802544
133	0xbe27ba59	-0.1637968
134	0xbe1755b9	-0.14778794
135	0xbe34995a	-0.17636624
136	0xbdd08ef5	-0.10183517
137	0xbd22410b	-0.03961281
138	0x3e23136e	0.1592538
139	0xbdfeb2f2	-0.12436475
140	0xbe09a757	-0.13442741
141	0xbe135c6e	-0.14390728
142	0x3e2959ba	0.16538134
143	0xbcb93289	-0.022607105
144	0xbd40a5d3	-0.047033142
145	0x3dc680c5	0.096925296
146	0xbdd5e903	-0.10444834
147	0xbd3f5c94	-0.04671915
148	0x3e25eaf1	0.16202904
149	0x3dc0d3ad	0.09415374
150	0xbe0c6c27	-0.13713132
151	0xbd4701ea	-0.04858581
152	0x3c8e3559	0.017359423
153	0x3d82ce88	0.06387049
154	0xbda69002	-0.08132936
155	0x3dfd7f14	0.12377754
156	0x3b352c8c	0.002764496
157	0xbe1c8370	-0.15284514
158	0x3d4205f1	0.047368947
159	0xbe2fb9d8	-0.17160738
160	0x3c49a3ae	0.012307091
161	0xbe330884	-0.17483717
162	0xbd4e8a0b	-0.050424617
163	0xbd284788	-0.041083843
164	0xbe229a94	-0.1587928
165	0xbd4cce71	-0.050001565
166	0x3bc28549	0.005936299
167	0xbdcbfa60	-0.099598646
168	0x3ccd8338	0.025086984
169	0x3dbf2dfc	0.09334943
170	0x3caae983	0.0208633
171	0xbe31ae63	-0.1735168
172	0xba126e8f	-0.00055859325
173	0xbda9aad7	-0.08284538
174	0x3d4e644d	0.050388623
175	0xbe113e53	-0.14183931
176	0xbdfa6f48	-0.122282565
177	0xbbc04c99	-0.005868506
178	0x3dd0c45b	0.10193702
179	0xbd4170a2	-0.047226556
180	0xbc18ba96	-0.009321829
181	0xbc8f6ae2	-0.01750702
182	0xbe0da35a	-0.13831845
183	0xbc65261c	-0.013986137
184	0xbba30818	-0.00497533
185	0x3cefb402	0.02926064
186	0x3da20a38	0.07912105
187	0x3d57a340	0.05264592
188	0x3dc9e601	0.09858323
189	0xbd0a09a9	-0.03370062
190	0xbd9c65ab	-0.07636579
191	0x3e19bb31	0.15012814
192	0x3e1054be	0.14094827
193	0x3dc56355	0.09638087
194	0x3e03ddb5	0.12877543
195	0x3db150f6	0.0865802
196	0x3e20042e	0.15626594
197	0x3e1d77ed	0.1537778
198	0xbe132e16	-0.14373049
199	0xbe2a9636	-0.16658863
200	0xbdbbd581	-0.09171582
201	0x3e0a6782	0.13516048
202	0x3e237249	0.15961565
203	0x3c3cefc8	0.011531778
204	0xbe05d769	-0.13070454
205	0xbdaa285a	-0.08308478
206	0x3dac1b4e	0.084036455
207	0x3e289e62	0.16466668
208	0x3d0c3ed7	0.034239616
209	0xbdee1a48	-0.116261065
210	0x3e2bc035	0.1677254
211	0x3e1ef3e9	0.15522732
212	0xbd9ed312	-0.07755102
213	0xbdc39f75	-0.095518984
214	0x3dd023a2	0.101630464
215	0xbe02cf77	-0.12774454
216	0x3e1719a8	0.14755881
217	0xbd122aa7	-0.035685208
218	0xbb1dad8b	-0.0024059738
219	0xbdc169d1	-0.09444011
220	0xbe32f512	-0.174763
221	0x3d23d1af	0.03999489
222	0xbd80fd36	-0.06298296
223	0xbdd4478b	-0.10365208
224	0x3e104aed	0.14091082
225	0x3d0644d6	0.03278049
226	0xbd4225fb	-0.047399502
227	0xbe26eef4	-0.16302091
228	0xbdcbce23	-0.09951427
229	0xbd6c5b7b	-0.05770443
230	0x3d98312a	0.07431252
231	0xbe24fbee	-0.16111729
232	0x3dd11766	0.10209541
233	0x3e24a86f	0.16079877
234	0x3d60105e	0.05470311
235	0xbe33bab8	-0.17551696
236	0x3cbcee80	0.023062944
237	0xbd921a0c	-0.07133874
238	0x3d650b3d	0.05591892
239	0xbbd88729	-0.006607909
240	0x3db123a1	0.08649374
241	0xbc6ba49b	-0.014382507
242	0x3d029aba	0.03188584
243	0x3d903d5f	0.070429556
244	0xbe061ddf	-0.13097332
245	0x3cf18165	0.029480645
246	0x3e214f27	0.1575285
247	0x3dfccc1a	0.12343617
248	0x3c344854	0.0110035725
249	0xbcfea8dc	-0.031086378
250	0x3d95b2c7	0.0730949
251	0xbe1f2ec6	-0.15545186
252	0xbd5a15b4	-0.053243354
253	0x3e1d02ae	0.15333053
254	0x3cba5cb7	0.022749288
255	0xbb15e162	-0.0022869934

attn_block.v_proj.weight f4 [32, 32]
0	0xbdf1b561	-0.118021734
1	0x3a2725dc	0.0006376186
2	0xbda36f79	-0.07980246
3	0xbcd1b408	-0.02559854
4	0x3e1bad28	0.15202773
5	0xbe1fc21f	-0.15601395
6	0xbe1d4140	-0.15356922
7	0x3d31742f	0.043323692
8	0x3dfc5820	0.12321496
9	0xbe2bfb39	-0.16795053
10	0x3d637c1f	0.055538293
11	0x3e33589d	0.17514272
12	0xbce8a893	-0.028400695
13	0xbdd5a064	-0.10430983
14	0x3db19c91	0.08672441
15	0x3dcc7e3b	0.09985014
16	0xbc9656d9	-0.018351959
17	0xbe13a345	-0.14417751
18	0x3be0a696	0.006855796
19	0xbdea74bc	-0.114480466
20	0xbe1a8971	-0.15091492
21	0x3de1f7cf	0.11033594
22	0x3df8a5f9	0.12141032
23	0x3d9159d9	0.07097215
24	0xbe13b483	-0.14424329
25	0x3e19840e	0.14991781
26	0x3e049d20	0.12950563
27	0x3e1b9367	0.15192948
28	0xbc4082b1	-0.011749909
29	0xbd061981	-0.032739166
30	0xbe22590a	-0.15854278
31	0x3e0594af	0.13045
32	0xbc17dec3	-0.009269419
33	0xbe34ffe2	-0.17675737
34	0x3e30fe71	0.17284562
35	0xbcbb3d5b	-0.022856405
36	0x3dd9bf56	0.106321976
37	0xbcd5c150	-0.026093155
38	0xbce3d209	-0.027810114
39	0x3e1f3c5a	0.15550366
40	0x3e164be1	0.14677383
41	0xbda8f8d3	-0.082505845
42	0x3bb4fb94	0.0055231545
43	0x3df5e9f3	0.12007513
44	0x3c0b3261	0.008495898
45	0xbd027c0e	-0.03185659
46	0x3e21ba10	0.15793633
47	0x3e213112	0.15741375
48	0xbd4217c6	-0.047385953
49	0x3e090e2e	0.13384315
50	0xbc8f6e11	-0.017508538
51	0x3bac203e	0.005252867
52	0x3e11356a	0.14180532
53	0xbc60b5e0	-0.013715237
54	0xbc900dc9	-0.017584698
55	0xbd1d56ec	-0.038412973
56	0xbe1722d1	-0.14759375
57	0x3e0c29bf	0.136878
58	0xbe0e045f	-0.13868855
59	0xbe0af129	-0.13568558
60	0x3cc400c8	0.023926154
61	0xbc9881e2	-0.01861662
62	0x3be30fe4	0.0069293845
63	0x3c63df29	0.013908186
64	0x3e336938	0.17520607
65	0xbe2fc1b5	-0.17163737
66	0xbdd9ac3c	-0.10628554
67	0x3d059174	0.032609418
68	0xbe21266d	-0.15737315
69	0xbe0f02ab	-0.13965861
70	0x3e0ab496	0.1354545
71	0x3d8c2f37	0.06844943
72	0xbd60996a	-0.054833807
73	0x3d3f1441	0.046650175
74	0x3cfd4874	0.030918337
75	0xbc8eac30	-0.01741609
76	0x3e165204	0.14679724
77	0xb845e6c9	-4.7183396e-05
78	0x3e006c6a	0.12541357
79	0xbe0ce758	-0.13760126
80	0xbd931967	-0.071825795
81	0x3cf4efd8	0.029899523
82	0x3dc16428	0.094429314
83	0xbd934e3c	-0.071926564
84	0x3e029784	0.12753111
85	0xbe162d2a	-0.14665666
86	0xbd8a19b1	-0.067431815
87	0x3e08168c	0.13289851
88	0xbe074191	-0.13208605
89	0xbe29c575	-0.1657923
90	0xbd36c2fb	-0.04461954
91	0xbe16d03f	-0.14727877
92	0x3d5764d4	0.05258639
93	0xbcfe9c65	-0.031080434
94	0xbd552335	-0.05203553
95	0x3dc836d8	0.097760856
96	0x3c288205	0.010284905
97	0xbe23331b	-0.15937464
98	0xbe2b895e	-0.1675162
99	0x3de3601d	0.111023165
100	0x3d9c212d	0.07623515
101	0x3dc6f33e	0.097143635
102	0xbe19bd88	-0.15013707
103	0xbd0bec49	-0.034160886
104	0x3e1aa891	0.15103365
105	0x3e123704	0.142788
106	0x3df620ac	0.120179504
107	0x3e280bf9	0.16410817
108	0xbd62e65e	-0.055395477
109	0xbe0c22eb	-0.13685195
110	0x3dcb859e	0.09937595
111	0x3de6d5dd	0.1127126
112	0xbd5aaa4e	-0.05338507
113	0xbc8730ae	-0.016502704
114	0xbc0b7a3d	-0.008513031
115	0xbe2093f6	-0.15681443
116	0xbd95f473	-0.073220156
117	0xbd6570d7	-0.056015816
118	0x3d8727a7	0.0659936
119	0xbd534463	-0.05157889
120	0x3da3655b	0.079783164
121	0x3e22ff85	0.15917785
122	0xbd1a5986	-0.037683032
123	0xbd307e0c	-0.043088958
124	0xbde36562	-0.111033216
125	0xbc5d0a38	-0.013491206
126	0xbe25a7fc	-0.16177362
127	0x3df4b647	0.11948829
128	0x3e1c26ae	0.1524913
129	0x3d411dd0	0.047147572
130	0x3e2b33b3	0.1671894
131	0x3db65c65	0.089043416
132	0x3deffc79	0.11718077
133	0x3e2731da	0.1632761
134	0xbdf8e9ec	-0.12153992
135	0xbc633a7e	-0.013868926
136	0x3d88033e	0.066412434
137	0xbd41d006	-0.047317527
138	0xbe00686c	-0.12539834
139	0xbd635b05	-0.055506725
140	0xbdb37846	-0.08763175
141	0xbd7df552	-0.062001534
142	0xbe09e680	-0.13466835
143	0xbd5a6a8e	-0.053324275
144	0x3dcf7155	0.10129038
145	0xbd9ee6a6	-0.077588364
146	0x3d9a374c	0.07530078
147	0xbe14ddb1	-0.14537694
148	0xbde4223c	-0.11139342
149	0x3c961872	0.018322203
150	0x3e27a2e7	0.16370736
151	0xbe272c9d	-0.16325612
152	0x3d9d9638	0.076946676
153	0x3cfd4699	0.030917453
154	0xbe13e976	-0.14444527
155	0xbe036eb3	-0.12835197
156	0x3db6679e	0.08906482
157	0xbdb4e64a	-0.08832987
158	0x3dfdb6af	0.1238836
159	0xbdfa5d3b	-0.122248136
160	0x3e08bfb9	0.13354386
161	0xbdb8b2a9	-0.09018452
162	0x3d92a83b	0.07160994
163	0x3d58a5a2	0.052892335
164	0xbe0e0af4	-0.13871366
165	0xbdbdde1f	-0.09270882
166	0xbd2f6559	-0.042821262
167	0x3a1308b5	0.00056089024
168	0x3db2ccde	0.087304816
169	0xbd94d221	-0.072666414
170	0x3cd5111c	0.026009135
171	0xbdc46386	-0.09589295
172	0xbdac16f9	-0.08402819
173	0x3dec41ea	0.115360096
174	0xbd464ffd	-0.048416127
175	0xbe1e9d8d	-0.15489788
176	0x3bf351eb	0.007425537
177	0xbcce7134	-0.025200464
178	0x3d4dd894	0.050255373
179	0xbdb8aef8	-0.09017748
180	0x3bf97f03	0.007614018
181	0xbdb29bbf	-0.087211125
182	0xbddacd85	-0.10683731
183	0x3d2584dd	0.04040991
184	0x3d5fcd75	0.0546393
185	0x3d05f472	0.032703824
186	0x3e2735ae	0.16329071
187	0x3c863ef0	0.016387433
188	0x3c764af1	0.015032516
189	0xbcbd5365	-0.023111055
190	0xbe2f0278	-0.17090786
191	0x3d8d9982	0.06914045
192	0x3e0d1d39	0.13780679
193	0x3c8f80b7	0.01751743
194	0xbe0d2d2c	-0.13786763
195	0x3e228902	0.15872577
196	0x3d223637	0.039602485
197	0x3e02eeb9	0.12786378
198	0x3d9d3d75	0.076777376
199	0x3ce46c89	0.027883785
200	0xbd555625	-0.052084107
201	0x3d14a795	0.03629263
202	0x3d68faff	0.056879994
203	0xbc2f9629	-0.010716953
204	0xbde73f71	-0.11291397
205	0xbdbe441c	-0.092903346
206	0xbe25e9c7	-0.1620246
207	0xbd8d98ca	-0.06913908
208	0xbce9751b	-0.028498223
209	0x3e140cfa	0.14458075
210	0xbdc1a914	-0.09456077
211	0xbe321e3d	-0.17394347
212	0x3dc66f9a	0.09689255
213	0x3e1c1368	0.15241778
214	0xbe0d30cd	-0.13788147
215	0xbae76749	-0.0017654683
216	0x3d663483	0.056202423
217	0x3de9669f	0.113965265
218	0xbd01fb95	-0.031734068
219	0x3da4e4d9	0.08051462
220	0x3e0b158d	0.1358244
221	0x3dd3dcc2	0.103448406
222	0x3db064ec	0.08612999
223	0x3ddc2bf5	0.10750572
224	0xbe22365a	-0.15841046
225	0x3d19f49b	0.03758679
226	0x3e0b98ce	0.13632509
227	0xbe0f6cc0	-0.14006329
228	0xbe1ead13	-0.1549571
229	0xbe157c44	-0.14598185
230	0x3d5e5163	0.054276835
231	0x3e27ff76	0.16406044
232	0xbc8359d8	-0.016034052
233	0xbd8feb58	-0.0702731
234	0x3c2b6783	0.010461691
235	0xbe1541a1	-0.14575817
236	0x3cfaaffe	0.030601498
237	0xbdee05a5	-0.1162217
238	0xbdf3adc4	-0.118983775
239	0xbe040c1e	-0.12895247
240	0xbd4cfe76	-0.05004736
241	0x3debf14b	0.11520632
242	0x3d131175	0.03590532
243	0x3dfbf46c	0.12302479
244	0xbe2ea3fb	-0.17054741
245	0xbe136b9c	-0.14396518
246	0x3dddd397	0.10831373
247	0x3e0e9763	0.13924937
248	0x3e19ba3e	0.15012452
249	0xbe281df7	-0.1641768
250	0x3da22a65	0.07918242
251	0xbe327f7d	-0.17431445
252	0xbd562444	-0.05228068
253	0x3b6ab0be	0.0035810913
254	0x3da94cac	0.08266577
255	0xbd5d3155	-0.054002125

attn_block.out_proj.weight f4 [32, 32]
0	0xbdeb84c0	-0.114999294
1	0xbdda9447	-0.10672813
2	0xbcda5b39	-0.026654826
3	0xbd97a1da	-0.074039176
4	0x3e264dc7	0.16240607
5	0x3d95af77	0.07308858
6	0xbe167f03	-0.14696889
7	0x3bf3c911	0.0074397405
8	0x3e1c1958	0.15244043
9	0xbbe9881c	-0.007126821
10	0x3ceb070d	0.028689886
11	0x3d45ad8e	0.048261218
12	0xbd6eea2c	-0.058328792
13	0xbdea65db	-0.11445209
14	0xbd87aeee	-0.06625162
15	0xbd3ceaf1	-0.046122495
16	0x3e0e7186	0.13910493
17	0xbe132564	-0.14369732
18	0x3cc2b19d	0.023766333
19	0xbd8a651f	-0.067575686
20	0xbc9a1336	-0.018807989
21	0xbc80a700	-0.015704632
22	0xbd8c6f9e	-0.06857227
23	0x3d271461	0.04079092
24	0x3d2b2056	0.041778885
25	0xbdcfe746	-0.10151534
26	0x3dde7190	0.10861504
27	0x3e234b76	0.15946755
28	0xbd95f3b3	-0.073218726
29	0x3d1395e3	0.036031615
30	0xbd860eb5	-0.06545774
31	0x3df82bb3	0.1211771
32	0xbc609324	-0.013706956
33	0xbe21663a	-0.15761653
34	0x3d287e16	0.04113587
35	0x3e1601fc	0.14649194
36	0x3a35021f	0.0006904918
37	0xbd396ec0	-0.045271635
38	0xbb9eeb09	-0.0048497957
39	0x3dcd00bc	0.10009906
40	0x3e1b4040	0.15161228
41	0xbd353541	-0.04424024
42	0x3dc0dc1b	0.09416982
43	0x3dc9ba1b	0.0984995
44	0x3e21ba61	0.15793754
45	0x3e01af58	0.12664545
46	0xbe158237	-0.14600454
47	0xbe158cd1	-0.14604498
48	0xbe1638ba	-0.14670077
49	0x3de37dc7	0.111079745
50	0xbdb7d8da	-0.08976908
51	0x3dc7fb37	0.09764712
52	0xbcd79fc2	-0.026321296
53	0xbd952df4	-0.072841555
54	0x3e0836ec	0.13302201
55	0xbd0bd975	-0.03414293
56	0xbdc36264	-0.09540251
57	0xbcddf122	-0.02709252
58	0xbde6427f	-0.11243152
59	0xbe2e4cc6	-0.17021474
60	0xbcfdba2a	-0.030972559
61	0xbc23107d	-0.009952662
62	0xbdce5a3c	-0.100758046
63	0x3e20703c	0.15667814
64	0xbd21c3cc	-0.039493367
65	0xbd37ebcf	-0.04490262
66	0x3e0f74b6	0.14009365
67	0x3ca12633	0.019671535
68	0xbd2a5538	-0.041585177
69	0x3d267e0e	0.04064756
70	0xbe238dd5	-0.15972073
71	0x3e31f6f6	0.17379364
72	0x3d3f00a2	0.046631463
73	0x3d7ea722	0.06217111
74	0xbe0582d3	-0.13038187
75	0x3e0a65de	0.13515422
76	0xbe14c6eb	-0.14529006
77	0xbd7b9bdc	-0.061427936
78	0xbde823af	-0.11334931
79	0xbdb6d755	-0.0892779
80	0x3d1a8503	0.037724506
81	0xbe3384ea	-0.17531171
82	0xbe3136b7	-0.17306028
83	0x3d256966	0.04038372
84	0x3d6ea431	0.058262054
85	0x3b261052	0.0025339318
86	0xbd898ae4	-0.067159444
87	0xbd4a8be0	-0.0494498
88	0xbcc80134	-0.024414636
89	0xbd12cfb2	-0.035842605
90	0xbddff92d	-0.109361984
91	0x3e084112	0.13306072
92	0x3d128cd5	0.03577884
93	0xbdf23703	-0.11826899
94	0xbd132af0	-0.03592962
95	0xbe02fc43	-0.12791543
96	0xbdd38771	-0.10328568
97	0x3e097e7e	0.13427159
98	0x3d5d0b09	0.053965602
99	0x3d9e9ac1	0.07744361
100	0xbcbbe2af	-0.02293524
101	0xbd34ad3f	-0.044110533
102	0x3cbb3024	0.022850104
103	0xbe0099a9	-0.12558617
104	0xbe341e59	-0.17589702
105	0x3dfe8540	0.12427759
106	0x3b6c173e	0.0036024596
107	0x3ddb98fd	0.107225396
108	0x3e0833fb	0.13301079
109	0x3d9e5956	0.07731883
110	0xbd777bcb	-0.060420793
111	0xbd04c7a4	-0.032416955
112	0xbc172898	-0.009225987
113	0x3c2d40a7	0.010574496
114	0x3be14f68	0.006875921
115	0xbe0d85cc	-0.1382057
116	0xbdc703c8	-0.09717518
117	0x3e03eaa7	0.12882482
118	0x3bb969f5	0.005658383
119	0xbda424d9	-0.08014841
120	0x3df4c535	0.11951677
121	0xbd56e69c	-0.05246602
122	0xbd934220	-0.07190347
123	0x3dfd0706	0.12354855
124	0xbe0ed0c3	-0.13946824
125	0xbdad61b6	-0.084659025
126	0x3e08fef0	0.13378501
127	0xbc8d99bd	-0.017285222
128	0xbd954aec	-0.07289681
129	0x3e1634ac	0.1466853
130	0x3cdc5d33	0.02689991
131	0xbe2a142c	-0.16609257
132	0xbe05dbe8	-0.13072169
133	0xbd378dc4	-0.044812933
134	0xbc1ef276	-0.009701362
135	0xbe084aaa	-0.13309732
136	0xbd886d54	-0.06661478
137	0x3d74c5a9	0.059758816
138	0xbe28d03a	-0.16485682
139	0xbe29a366	-0.16566238
140	0x3d3c4088	0.04595998
141	0x3d0a320e	0.033739142
142	0xbe2ecffa	-0.17071524
143	0xbe286d7b	-0.16448013
144	0x3e166811	0.14688136
145	0x3e34a805	0.1764222
146	0xbd9e3aec	-0.07726082
147	0x3e345176	0.176092
148	0x3dfa0c2d	0.122093536
149	0x3e20e82b	0.15713565
150	0xbd9bc938	-0.07606739
151	0xbd31315d	-0.043259967
152	0x3dd572bf	0.10422277
153	0x3d86498b	0.06556996
154	0xbe1079b3	-0.14108925
155	0x3dd8aaf5	0.105794825
156	0x3e30865c	0.17238754
157	0xbde5ea87	-0.11226373
158	0xbe28114b	-0.16412847
159	0xbe2c6ee4	-0.16839176
160	0xbde50d56	-0.11184184
161	0xbd9f6e75	-0.0778474
162	0xbdcc9933	-0.09990158
163	0xbe1e8b0e	-0.15482733
164	0x3de21d2a	0.11040719
165	0x3e310b9c	0.17289585
166	0x3e178d23	0.14799933
167	0x3de2b56c	0.1106976
168	0x3da0be09	0.07848746
169	0xbd8ebab4	-0.069692045
170	0xbe121398	-0.14265287
171	0xbdd5d457	-0.10440891
172	0x3da3ec88	0.08004099
173	0x3d1e6aac	0.03867595
174	0x3cb8e01d	0.022567803
175	0xbddbb9b4	-0.107287794
176	0xbdaa5497	-0.083169155
177	0xbd98af59	-0.0745532
178	0xbcb7d353	-0.022439634
179	0xbd08a1b9	-0.033357356
180	0x3c99249b	0.018694213
181	0xbd712080	-0.058868885
182	0xbca41718	-0.020030543
183	0xbde64233	-0.11243095
184	0x3db2e779	0.08735556
185	0xbe166fc8	-0.14691079
186	0x3d042aa4	0.032267228
187	0xbe2c3731	-0.16817929
188	0xbdce76f3	-0.100812815
189	0x3e2f0766	0.17092666
190	0xbd077d7d	-0.03307866
191	0xbd050457	-0.032474842
192	0x3dbac525	0.091196336
193	0xbe1c29a4	-0.1525026
194	0xbd26ccfc	-0.040722832
195	0xbbba7100	-0.00568974
196	0x3ca2fd17	0.019896073
197	0xbcefd467	-0.029276086
198	0xbdff6167	-0.1246975
199	0xbe25e878	-0.16201961
200	0x3af9be79	0.0019053958
201	0x3e1729e5	0.14762075
202	0xbda28520	-0.07935548
203	0x3cb71692	0.02234963
204	0x3de620f4	0.11236754
205	0xbe30ddc2	-0.17272094
206	0x3e203074	0.15643483
207	0x3e18e397	0.14930569
208	0xbd9e60cc	-0.07733306
209	0x3e1dc905	0.15408714
210	0x3df74f1a	0.12075634
211	0x3e165fe3	0.14685015
212	0x3e1cc522	0.15309575
213	0x3d260dfa	0.040540673
214	0x3dc6ef41	0.09713603
215	0xbdc1da6c	-0.09465489
216	0x3cf3345a	0.02968805
217	0x3e2d96d9	0.16952075
218	0xbd7982d5	-0.060915787
219	0x3d2aa2a0	0.041658998
220	0xbdb8faaa	-0.090321854
221	0x3d85d150	0.06534064
222	0x3d6bc1d7	0.057557907
223	0x3e08aa80	0.1334629
224	0x3a7f7f60	0.00097464584
225	0x3dacdb8f	0.08440315
226	0x3ddb7d50	0.10717261
227	0x3ce933b3	0.028467035
228	0xbe2ac41c	-0.16676372
229	0x3e005815	0.125336
230	0xbde7d250	-0.11319411
231	0x3da7b4fb	0.08188816
232	0xbe076fa8	-0.13226187
233	0x3d52e904	0.051491752
234	0xbd078139	-0.03308222
235	0xbe221bd5	-0.1583093
236	0x3da55081	0.080719955
237	0xbd287aaa	-0.041132607
238	0xbd96a4f4	-0.07355681
239	0xbd60fa17	-0.054926004
240	0x3df629ad	0.12019668
241	0x3dd4bb74	0.10387316
242	0x3d4540ba	0.04815743
243	0x3d977cdd	0.07396863
244	0x3db9f585	0.09080032
245	0x3d95c735	0.07313386
246	0x3e1a22a8	0.15052283
247	0x3dd9ffcb	0.10644492
248	0xbdba4db3	-0.09096851
249	0xbcdc90e8	-0.026924565
250	0x3da8db48	0.082449496
251	0x3e1005c9	0.14064707
252	0xbe166b33	-0.14689331
253	0xbdb38fb2	-0.08767642
254	0xbdb38b9f	-0.08766865
255	0x3e2af924	0.16696602

attn_block.out_proj.bias f4 [32]
0	0xbe2ffb3e	-0.17185685
1	0xbd3094df	-0.043110725
2	0xbde92a32	-0.11385001
3	0xbe0a8818	-0.13528478
4	0xbdd73cdd	-0.105096556
5	0x3d64c19c	0.055848703
6	0x3df0ad4e	0.11751805
7	0x3da37ecc	0.07983169
8	0xbd78031e	-0.060549848
9	0x3d9fb38e	0.07797919
10	0x3e324b28	0.17411482
11	0x3c0da333	0.008644867
12	0xbd82481e	-0.063614115
13	0xbe0ef04d	-0.13958855
14	0x3dffecbc	0.124963254
15	0xbd2579d7	-0.0403994
16	0xbe0e0530	-0.13869166
17	0x3dd15cea	0.102228
18	0x3d105a0a	0.035242118
19	0xbd921ff0	-0.07134998
20	0xbe322e2a	-0.17400423
21	0x3cb5a9c0	0.02217567
22	0xbd5671df	-0.05235469
23	0xbcfb1eb3	-0.030654287
24	0xbd718bc8	-0.058971196
25	0x3e14e349	0.14539827
26	0x3dc02b73	0.09383287
27	0x3e0f8301	0.14014818
28	0x3d88b021	0.06674219
29	0x3d4ea33b	0.050448637
30	0x3e32a67f	0.17446326
31	0xba2484b2	-0.00062758767

classifier.0.weight f4 [32, 32]
0	0x3dd02164	0.10162619
1	0x3d9336ec	0.0718821
2	0xbe2d3e85	-0.1691838
3	0x3df5f420	0.12009454
4	0xbc8e02e1	-0.017335357
5	0xbdf476a4	-0.119366914
6	0x3df3fb32	0.11913146
7	0xbe129c7d	-0.14317508
8	0x3da9c07f	0.08288669
9	0xbe14e729	-0.14541306
10	0xbd4faef0	-0.050703943
11	0xbe29d4ab	-0.16585033
12	0x3e01756a	0.12642446
13	0x3d33042a	0.043705143
14	0x3e13b5fe	0.14424893
15	0x3d5cfdef	0.053953107
16	0xbdb38317	-0.08765238
17	0x3cd9c11e	0.026581343
18	0x3df500b4	0.11963025
19	0xbe0bf393	-0.13667135
20	0xbdf1846f	-0.11792838
21	0xbd382d04	-0.044964805
22	0xbde22e55	-0.110439934
23	0xbd038a48	-0.032114297
24	0x3e2b6b77	0.16740213
25	0x3dc94fe3	0.0982969
26	0xbe12c2f0	-0.14332175
27	0xbdc35aa0	-0.0953877
28	0x3e1144b6	0.14186367
29	0xbc5e1fac	-0.013557356
30	0xbd98715b	-0.07443496
31	0x3d0d8fd2	0.034560986
32	0xbce5eadc	-0.028066091
33	0x3d73f444	0.05955912
34	0x3b556cba	0.0032566027
35	0x3dcdda8f	0.10051452
36	0x3dc74b6f	0.09731185
37	0x3d7e35b6	0.06206294
38	0x3d6048bd	0.05475687
39	0xbd39f18b	-0.04539637
40	0xbe278989	-0.16361059
41	0xbc8b6b7b	-0.017019024
42	0xbe097b94	-0.13426048
43	0xbe10cd63	-0.14140849
44	0xbe1f6583	-0.15566067
45	0xbd34f10a	-0.044175185
46	0xbe05ddb0	-0.13072848
47	0x3cf4d937	0.029888732
48	0x3d9c57cd	0.07633934
49	0x3dd715b5	0.10502187
50	0xbe2eb7d3	-0.17062311
51	0x3e184f4b	0.14873998
52	0x3d57721b	0.052599054
53	0x3e12e5fe	0.14345548
54	0x3daf6c05	0.08565525
55	0x3d03a12c	0.032136127
56	0xbd0afa47	-0.03393009
57	0x3e177159	0.14789332
58	0xbdeba317	-0.11505716
59	0x3e0d32f0	0.13788962
60	0x3e1de38c	0.15418833
61	0x3cec80bc	0.02886998
62	0xbd9b4284	-0.07581046
63	0xbe123b2a	-0.14280382
64	0xbc1f31bf	-0.00971645
65	0x3e19d18d	0.15021344
66	0x3c05e29d	0.008171705
67	0xbd3641bc	-0.044496283
68	0xbdb40c5e	-0.08791421
69	0x3c586d5a	0.013209665
70	0x3dc837d4	0.09776273
71	0x3d0d0f97	0.034438696
72	0x3cf9b23b	0.030480495
73	0xbdfa8808	-0.12232977
74	0x3daf34f4	0.08555022
75	0x3c96851f	0.018374024
76	0xbe31eb17	-0.17374836
77	0x3e16912e	0.14703819
78	0x3de63d40	0.11242151
79	0x3ab5a083	0.001385704
80	0xbd0f0597	-0.03491744
81	0x3e22968c	0.15877742
82	0x3e33b587	0.17549716
83	0x3cec0043	0.028808719
84	0x3e2809a1	0.16409923
85	0x3d990d5f	0.074732535
86	0x3dacc6ca	0.084363535
87	0xbc2b8974	-0.010469783
88	0xbc538eb9	-0.012912446
89	0x3de788f9	0.11305422
90	0xbd9e92cd	-0.07742844
91	0xbe014d42	-0.12627128
92	0x3de20c92	0.11037554
93	0xbd2dc96a	-0.04242841
94	0x3dff9b6e	0.12480818
95	0xbcf09e97	-0.029372497
96	0xbddc8de1	-0.10769249
97	0xbb44059a	-0.0029910565
98	0xbca6f5bb	-0.020380845
99	0x3d263325	0.04057612
100	0xbe0ba80c	-0.13638324
101	0xbe1943b3	-0.14967231
102	0x3c15c699	0.009141588
103	0x3e2362e4	0.15955693
104	0xbde4dab4	-0.11174527
105	0xbdb61f08	-0.088926375
106	0x3c8a362a	0.01687153
107	0x3e078ff6	0.1323851
108	0x3e0ab9fd	0.13547511
109	0xbd1730af	-0.036911663
110	0xbc17d68b	-0.00926746
111	0xbe0e8521	-0.13917972
112	0x3e30cc5d	0.17265458
113	0x3ddbf46d	0.1073998
114	0x3d3921c4	0.045198217
115	0xbe2fd94a	-0.17172733
116	0x3dcca6d0	0.099927545
117	0xbdcbfd10	-0.09960377
118	0x3bf11365	0.0073570483
119	0x3dadb57e	0.084818825
120	0xbbe6b3db	-0.0070404834
121	0xbdb09561	-0.08622242
122	0x3df48a5f	0.11940455
123	0x3df562fd	0.11981771
124	0x3c8d11fa	0.017220486
125	0xbde2407f	-0.11047458
126	0xbdbb8d47	-0.09157806
127	0xbe229bde	-0.15879771
128	0xbdc1c4de	-0.094613776
129	0xbe21b16f	-0.15790342
130	0xbc7f9278	-0.015598886
131	0xbe008ebb	-0.12554447
132	0x3dce2eba	0.10067506
133	0xbe127a23	-0.14304404
134	0xbdf998d5	-0.121873535
135	0xbddf1608	-0.10892874
136	0xbd3e3f59	-0.04644713
137	0x3d8dae3f	0.069180004
138	0x3e0247ae	0.12722656
139	0x3e338a51	0.17533232
140	0xbd2cb089	-0.042160545
141	0x3d29fe44	0.041502252
142	0x3c4beb21	0.012446196
143	0x3dc7ac32	0.097496405
144	0x3daa21b9	0.08307213
145	0x3dd4ddb1	0.10393847
146	0x3df6f22f	0.120579116
147	0x3e16b16d	0.1471612
148	0x3c13f75b	0.009031142
149	0x3dfd7152	0.1237513
150	0xbdcb6df6	-0.09933083
151	0xbd181015	-0.037124712
152	0xbd4a4ae3	-0.049387824
153	0xbd58cce6	-0.05292978
154	0x3c25d958	0.01012262
155	0xbe2a4fa1	-0.16631939
156	0xbdcd3178	-0.10019201
157	0xbc87c0cc	-0.016571425
158	0x3d119e4b	0.03555135
159	0x3e00416e	0.1252496
160	0xbdf89394	-0.12137523
161	0x3d30aa87	0.043131378
162	0x3da71390	0.08158028
163	0xbdc12c9b	-0.09432336
164	0x3cf6451c	0.03006225
165	0xbdbdc220	-0.09265542
166	0xbb9a6f66	-0.0047129868
167	0xbdc6f0f8	-0.0971393
168	0xbd4aa171	-0.04947037
169	0xbd8f3872	-0.06993188
170	0x3e1c9f24	0.15295082
171	0x3d2ec201	0.042665485
172	0xbe2f9e9b	-0.17150347
173	0x3cb740d2	0.022369776
174	0x3dc56d49	0.09639985
175	0xbd9da942	-0.07698299
176	0xbdd8810d	-0.105714895
177	0xbd0e2c4f	-0.034710225
178	0xbe1fe50c	-0.15614718
179	0xbd86b363	-0.06577184
180	0x3cb1e3ee	0.02171513
181	0xbe070d99	-0.13188781
182	0xbe2bef45	-0.16790493
183	0xbdd73cb6	-0.105096266
184	0xbe043bba	-0.12913409
185	0x3baa1994	0.0051910374
186	0x3d82d94e	0.06389104
187	0x3de41cd5	0.11138312
188	0x3e34e1cf	0.17664264
189	0x3dbd3b2b	0.09239801
190	0xbda3740a	-0.07981117
191	0xbcc05cdc	-0.023481779
192	0xbdb9eb1d	-0.090780474
193	0x3dd998c4	0.10624841
194	0x3d716801	0.058937076
195	0x3da6e022	0.08148219
196	0xbdf33caf	-0.11876809
197	0x3e0d1dc1	0.13780881
198	0xbe1f5d4a	-0.1556293
199	0x3db5c214	0.08874908
200	0xbe1de765	-0.15420301
201	0x3e0a9c33	0.13536148
202	0xbdd6a1e6	-0.104800984
203	0xbe0cdfc1	-0.1375723
204	0x3db523d4	0.08844724
205	0x3e207ebd	0.15673347
206	0xbc52a560	-0.012856811
207	0x3d9784d4	0.07398382
208	0x3e259ed6	0.16173872
209	0xbe131bab	-0.14366023
210	0x3d933618	0.07188052
211	0x3d26aaab	0.040690105
212	0xbdcdfee5	-0.10058383
213	0x3dd6fdf4	0.104976565
214	0x3e213ea5	0.15746553
215	0x3e0b3297	0.13593517
216	0xbe0212b1	-0.12702443
217	0x3e20107f	0.15631293
218	0x3e184393	0.14869528
219	0x3d89ab49	0.06722123
220	0xbcc6983a	-0.02424251
221	0x3e0b4a64	0.13602597
222	0xbdeaa203	-0.114566825
223	0xbddbf63d	-0.107403256
224	0x3dc71a5e	0.09721826
225	0x3df17daf	0.1179155
226	0xbc9233c8	-0.017846957
227	0x3e267916	0.16257128
228	0x3dbea526	0.09308843
229	0x3db11544	0.08646634
230	0x3e12c1be	0.1433172
231	0x3e3235ce	0.17403337
232	0x3dfd3447	0.12363487
233	0x3e138141	0.14404775
234	0x3c887f0d	0.016662145
235	0x3e0ddf1f	0.13854645
236	0x3dc28d52	0.09499611
237	0xbdb20af4	-0.086934954
238	0x3dca55ba	0.09879632
239	0x3c49e242	0.0123220105
240	0xbd79f190	-0.061021388
241	0x3e07cc15	0.13261445
242	0x3d3d68eb	0.046242636
243	0x3e0d0eb7	0.13775145
244	0x3d1c1c0a	0.038112678
245	0x3d58389b	0.05278836
246	0x3dd9633f	0.10614633
247	0xbd348984	-0.044076458
248	0x3de0fc60	0.10985637
249	0xbdbb22ce	-0.09137498
250	0xbccd25f8	-0.025042519
251	0x3c84da4a	0.01621737
252	0x3dfa3f5d	0.12219117
253	0x3d9f8dd9	0.07790727
254	0x3e2ea78e	0.17056105
255	0xbdc2676c	-0.094923824

classifier.0.bias f4 [32]
0	0x3cb23d1d	0.021757657
1	0x3d87e5d7	0.06635635
2	0x3e1ade20	0.15123796
3	0x3ce5d732	0.028056715
4	0x3def89a6	0.11696176
5	0xbdcc1f50	-0.0996691
6	0x3e152628	0.14565337
7	0xbd00bfed	-0.031433035
8	0x3dc400d9	0.09570474
9	0xbe167000	-0.14691162
10	0xbdd9909d	-0.10623286
11	0xbdd3ef41	-0.103483684
12	0x3dbf4098	0.09338492
13	0xbbc10719	-0.0058907387
14	0xbe26219e	-0.16223761
15	0x3e3187a0	0.17336893
16	0x3d3cb8f0	0.046074808
17	0x3e267ddb	0.16258948
18	0x3cb4c5c0	0.02206695
19	0x3ccf98e8	0.025341466
20	0x3e027a92	0.1274207
21	0xbdf64f79	-0.12026877
22	0x3e2af3de	0.1669459
23	0xbde8db2e	-0.1136993
24	0x3c834228	0.016022757
25	0xbdeb75de	-0.11497091
26	0xbdefe0b3	-0.1171278
27	0x3e0b5499	0.1360649
28	0xbd3f3d66	-0.046689413
29	0xbd07e427	-0.033176567
30	0x3e0d6ed1	0.13811804
31	0x3e315814	0.17318755
